data.pth (torch, 69143 bytes, 6 tensors)

l1.weight f4 [83, 83]
00000000: a2fc 8bbd 2a68 64bd 7c9a b03d ed29 58bd
00000010: 7862 8fbd d088 9abb d504 bbbd 240b 193d
00000020: 90b1 a8bd 1c3b de3d 0c01 093d 18bb 743c
00000030: 185b e83c a4fe d93d bb01 50bd d8bb 163d
00000040: 56ee d13d 1801 3b3d 685b 0c3d 60e0 3e3c
00000050: 1ec8 acbd 00e8 3fba 1cca d23d f612 80bd
00000060: e81e ca3d dcbb b7bc 9c84 a0bd ac83 97bc
00000070: 9829 39bc 3c9d f0bc 9353 c4bd 2874 39bd
00000080: e159 dfbd e066 933d 804a c33a 523c 95bd
00000090: 9422 d7bc 201e 0abd 3031 fa3b e069 f8bc
000000a0: 8892 5c3d 60b9 aa3d fa5b 77bd 30b8 c03d
000000b0: d8a9 f5bc 882f 323d fc7c 423d 3237 c83d
000000c0: 3c34 173d 30e2 ea3c 38ff c73c 08f4 093d
000000d0: 68ea 403d a0c0 9fbb 1c05 ce3d 6875 aabc
000000e0: 0af8 bdbd acf3 533d 626a afbd 72ea c6bd
000000f0: 40b5 b73d c466 a4bd 5089 12bd fbad a6bd
00000100: 399b d0bd 65d4 5cbd 32f1 b93d 00e7 d83b
00000110: a45f b13d 1edf 3dbd 00ac b73c c64b ca3d
00000120: 60d4 48bd b852 d33d 3002 d03d b404 893d
00000130: 6e5c d63d 1097 273c d59f c1bd b80e 8c3c
00000140: eeef 90bd 30ae 91bc 8ad6 81bd 8cba 85bd
00000150: fa8e a23d 1a92 843d e459 cdbd 7069 eb3b
00000160: 10eb 563d eb78 5dbd b2c9 62bd 00ea 083a
00000170: 5c7f 343d 6893 a43d b86c e03c 6232 1cbd
00000180: 924c cd3d 6853 5a3c 1071 123d 3088 99bd
00000190: 52b5 b23d 082e 723d 00a8 53bb e2e2 c33d
000001a0: d7c5 88bd 5e4a 38bd 0c80 313d 301d 2c3d
000001b0: d088 833c f4ca b93d ae42 b5bd 6ad0 b23d
000001c0: dc00 463d 2681 ccbd 882d 11bc dc0c 193d
000001d0: a8a7 c0bd d47d 88bc e0ab b23b 5ac1 8c3d
000001e0: 30cd 4fbc 8870 bfbd b089 5e3d ea8b c5bd
000001f0: 50e3 c93c 58aa b4bd c06e 04bd f8b9 753d
00000200: a084 9ebb 505f b4bd 309d a8bc 30f3 d53c
00000210: 5200 b7bd c05f 0a3d b2cf 7dbd cc03 203d
00000220: 202f e43c 1031 993c 8d9f 8fbd 9426 633d
00000230: 3298 babd 541c b9bc f828 bdbc d881 813d
00000240: d956 53bd 1814 633d a4ae c0bc e014 73bc
00000250: 082e 783c 8469 1d3d c23b b13d 708e 163d
00000260: bc7f 4f3d 066f cabd c021 cdbb 886c a53d
00000270: 0466 8fbd 0236 99bd 1c9a d1bd 6e34 73bd
00000280: 1863 c33d da08 923d 4643 c03d f4ba 84bc
00000290: 5812 c2bd a821 9fbd 70f4 a5bd 089d b93d
000002a0: a8a5 0f3d 402d 5e3b cc1d d7bc 28bb 423c
000002b0: 54c9 3f3d d4cb bbbd 466e b73d 758c 80bd
000002c0: b60d a93d f457 453d 1f9f c7bd 437e b7bd
000002d0: a0fc acbd 5256 18bd ba5d 15bd 6cee 7f3d
000002e0: b81d 393c 6469 7abd 8081 db3d c059 f2ba
000002f0: c059 c4bc d6e7 dd3d 9555 a4bd dae6 d13d
00000300: 1e57 07bd 3cb5 c5bc 1062 4abc 55b3 c0bd
00000310: c8db 7ebd a0a1 9c3c e17c cdbd c466 b43d
00000320: 48c0 33bd 7632 a83d 60f1 9fbb 301a a53c
00000330: 2870 db3d d8ad 963d 60b0 19bb d0e2 46bd
00000340: 5a5e b9bd 4025 843d 5cfc 94bc 00ef c93a
00000350: c08d 323d 8535 94bd 4813 c63c 9e64 923d
00000360: 4a2a 953d 6d91 5cbd 90f3 a4bd c8de 013d
00000370: 9ae8 c6bd 1a0b b23d a0b0 8e3d 2041 24bb
00000380: 1c53 0fbd d4cd 1dbd 4c12 afbd bcf4 8fbd
00000390: 381c 503d 8a50 933d fece c1bd 4475 143d
000003a0: ecd8 85bc dad4 b6bd 72a3 9d3d 6207 ba3d
000003b0: 24c2 6f3d b2f4 853d 93a1 b6bd 467c 2bbd
000003c0: c1f6 c4bd 943e 7e3d f0fb dd3b b7ec 95bd
000003d0: 0c4c 59bd 60a2 d63c ecd5 133d 1030 d4bc
000003e0: d18f aebd 0882 113d 184e ae3c 8497 493d
000003f0: d648 b13d b86e 543c 4c6a 02bd 8cf0 ca3d
-0.06835295 -0.0557634 0.086232156 -0.05277436 -0.07001203 -0.0047160164 -0.09131781 0.03736414
-0.08236992 0.10851118 0.033448264 0.014937185 0.02836375 0.10644272 -0.0507829 0.036800236
0.10250537 0.04565534 0.03426686 0.011650175 -0.08436607 -0.00073206425 0.102924556 -0.062536165
0.09869176 -0.022428446 -0.07837793 -0.018495403 -0.011301421 -0.02937185 -0.09586253 -0.04527679
-0.10905815 0.07197356 0.0014899522 -0.07286896 -0.026261605 -0.033720136 0.007635258 -0.030323923
0.05385068 0.08336139 -0.06039045 0.09410131 -0.029988214 0.04350236 0.047482476 0.09776153
0.03691505 0.028672308 0.02441369 0.033679992 0.047098547 -0.0048752576 0.10059568 -0.020807937
-0.09275825 0.051746055 -0.08565213 -0.09712686 0.089701176 -0.080274135 -0.035775483 -0.08138653
-0.10185856 -0.053913493 0.090792075 0.006619334 0.0866082 -0.04635536 0.022420883 0.09877734
-0.04903066 0.10318512 0.10156667 0.0669035 0.10466848 0.010228887 -0.09454314 0.017096862
-0.07077013 -0.017783254 -0.06339748 -0.065297216 0.07937427 0.06473179 -0.10026911 0.0071842
0.052470267 -0.054070394 -0.055368133 0.0005222857 0.044066772 0.08035928 0.027395591 -0.038133986
0.1002437 0.01332555 0.035752356 -0.07496679 0.0872599 0.05912593 -0.003229618 0.09564759
-0.0667836 -0.044992797 0.043335006 0.042020023 0.016056448 0.09071913 -0.08850609 0.08731158
0.048340663 -0.099855706 -0.008860953 0.03736578 -0.09406978 -0.016661562 0.005452618 0.068728164
-0.012683198 -0.093476355 0.054330528 -0.09645827 0.024644524 -0.08821553 -0.032332182 0.059991807
-0.0048375875 -0.08807242 -0.020582765 0.026116937 -0.08935608 0.03378272 -0.06196565 0.03906612
0.027854502 0.018700153 -0.07012854 0.055456713 -0.0911106 -0.022596516 -0.023090824 0.06323594
-0.051596496 0.055439085 -0.023520775 -0.01483652 0.015147693 0.038430706 0.08653976 0.036756933
0.050658926 -0.09884457 -0.006260127 0.08077341 -0.0700188 -0.07481004 -0.10234472 -0.059376173
0.09540385 0.071305946 0.093878314 -0.016202427 -0.09476155 -0.07770091 -0.081032634 0.090631545
0.03507009 0.0033901483 -0.026259325 0.011885442 0.04682286 -0.091697365 0.0895658 -0.0627679
0.08254568 0.04817958 -0.09747147 -0.089596294 -0.08446622 -0.037191696 -0.036466338 0.062483236
0.011298589 -0.061135665 0.107180595 -0.0018489882 -0.023968577 0.10835235 -0.08024136 0.102491096
-0.033042066 -0.02413427 -0.0123524815 -0.09409205 -0.06222132 0.019120038 -0.100335844 0.088086635
-0.043884546 0.0821275 -0.004881069 0.020154089 0.107147515 0.07357377 -0.0023451075 -0.04855615
-0.09051199 0.064524174 -0.01818674 0.001540631 0.043592215 -0.072367705 0.024179116 0.071480975
0.072834566 -0.053849626 -0.08054268 0.0317066 -0.09712334 0.08693524 0.06967282 -0.0025063232
-0.03499137 -0.03852637 -0.08548412 -0.07029101 0.05080816 0.07193096 -0.09463309 0.036244646
-0.016338788 -0.08927317 0.0769719 0.090834394 0.058534756 0.065408126 -0.089175366 -0.041866563
-0.09617377 0.062071398 0.006774418 -0.073205404 -0.05305104 0.026200473 0.036092684 -0.025901824
-0.085235246 0.035524398 0.021277472 0.049216762 0.086564705 0.0129658505 -0.031839654 0.09909162

l1.bias f4 [83]
00000000: b45b b13d 86e9 b53d ecc4 1ebd deef a2bd
00000010: 0c1a 5d3d 9012 c3bb 880c 5e3d 0c55 c8bd
00000020: 3a83 da3d 81c2 50bd dcc8 983d 9aff ddbd
00000030: 783e e73c dc8c 333d 88b1 b9bc 60e8 333d
00000040: f437 51bd 7cd8 1d3d 00ee c13a f8d1 1d3d
00000050: 4f1a dbbd 4caf 8cbd 62a9 d9bd 57ee d3bd
00000060: d03d 94bc 60b4 1fbb 340f 893d 79bd d5bd
00000070: 1834 4c3d 4970 dcbd a0f1 923c a676 29bd
00000080: e09e dabc b4c8 6a3d f408 8fbc 4cd5 593d
00000090: d05a cabd befd bbbd 5043 7e3d d80e 94bd
000000a0: 541b 413d e28a 36bd 60ec 7bbd 9641 38bd
000000b0: fac9 b13d 1c62 eebc 483a 5f3d c477 87bc
000000c0: 18e6 793d 4ed9 82bd 7a51 d13d c080 1bbc
000000d0: 88f4 ca3d 6429 313d 2a46 ce3d 2842 633d
000000e0: 7adb a63d 1010 f73b de87 2abd 7ec9 24bd
000000f0: 9ca6 183d 1ec7 ae3d a011 b3bb acfa 373d
00000100: 14b4 9f3d 902f c2bd a8be 2c3d 4881 29bd
00000110: 5c80 da3d 4645 873d dc26 e0bc b859 6fbc
00000120: 8487 5d3d cee3 93bd 88cb db3d ffac 47bd
00000130: 98fa 563c 1aff 9ebd ea80 bf3d 36b6 c33d
00000140: c037 d83d c429 d0bd 2800 e0bd
0.08660069 0.08882432 -0.038762018 -0.07955907 0.05397992 -0.0059531406 0.05421117 -0.097818464
0.10669561 -0.050966743 0.07460186 -0.10839768 0.02822803 0.043835506 -0.022667661 0.043922782
-0.05107875 0.038536534 0.0014795661 0.03853032 -0.10698377 -0.06869373 -0.1062801 -0.10348194
-0.01809588 -0.0024368986 0.06692353 -0.1043653 0.049854368 -0.10763604 0.017937481 -0.041372918
-0.026687086 0.05732031 -0.017460324 0.05318193 -0.09880602 -0.09179257 0.062075913 -0.07229394
0.047145203 -0.044566043 -0.06150472 -0.044984423 0.08681102 -0.029099517 0.05449894 -0.0165366
0.06101045 -0.06389104 0.102206185 -0.009491146 0.09909922 0.043252364 0.100719765 0.055483013
0.081473306 0.0075397566 -0.04163348 -0.04023122 0.037268266 0.08534072 -0.0054647475 0.044916794
0.07798019 -0.09481728 0.04217401 -0.041383058 0.10669014 0.0660501 -0.02736228 -0.014608793
0.054084316 -0.07221185 0.1073218 -0.048748966 0.01312127 -0.077635005 0.0935076 0.09556238
0.105575085 -0.10164216 -0.1093753

l2.weight f4 [83, 83]
00000000: 30f5 953c 6f63 8fbd f415 5a3d 242f 6b3d
00000010: 0517 7dbd 9135 57bd 3cf5 7c3d 2011 1c3d
00000020: 063b a0bd dceb d43d 3876 85bc 0efa de3d
00000030: ccdc 733d 60ed 623d 55f1 d6bd fc6a 8cbd
00000040: 762e 83bd 2965 8dbd f4df bf3d dc09 873d
00000050: 8a0f 12bd e05f 993b 9477 39bd 403a 6a3b
00000060: 5874 cc3c a4cc d2bd a8b2 cdbd b899 12bc
00000070: a8ea 96bc bb57 d3bd 9497 4dbd 36a6 a4bd
00000080: 5266 d8bd 8403 c8bc f834 77bc fcbb 99bd
00000090: 5d52 c6bd 30fa b6bd 22d4 8d3d 1feb ddbd
000000a0: a0ed 463b 26cb d43d b866 13bc a6f5 d93d
000000b0: f08d 35bd 2a5d c7bd 5cc1 b0bc 0afb d63d
000000c0: b0f3 8c3b 2ac7 83bd bef8 79bd c09b ca3d
000000d0: 40b6 963b 00c0 a3b7 b053 84bd e22a 25bd
000000e0: 20ad 04bd 1472 95bd 0614 5abd 1d0a 7abd
000000f0: 30b4 083d 87c4 7ebd 506d 7b3c da0f cc3d
00000100: 74ec d1bd a003 9e3b c092 ed3b 08bb 563c
00000110: b2af d43d 7850 8a3c 9aac cb3d e63d 90bd
00000120: 80c8 75ba e036 0dbc 1a3e 9dbd a49c 393d
00000130: c2e9 bd3d caaa 4cbd 228e bbbd f08f e83c
00000140: f920 b8bd fc84 87bd d820 5fbc 38e6 78bc
00000150: b867 213c e0e8 1c3b 6a6c 1ebd dcad 92bc
00000160: b576 d2bd ead5 76bd 5852 b9bd 7c9f 9abd
00000170: 1cc6 a43d 48dd b23c 2c70 853d 0074 b13d
00000180: 1492 2d3d 68bd ba3c 8ea2 a23d ccf7 afbc
00000190: a85e 503d 22dd cbbd c804 453c c8db 46bc
000001a0: 6db0 aabd 204e e3bb 16f4 17bd 14f4 d63d
000001b0: ae23 d03d fe2c a1bd f039 823d 7458 7dbd
000001c0: 0056 a4bd f8c8 893d ccf8 2c3d 7682 6cbd
000001d0: 589d cbbc d035 9abd a2ef 1bbd 5ce5 c73d
000001e0: 6061 753c 78ec 7b3d e22f b43d 7505 d8bd
000001f0: 6a54 55bd 10aa c63c d37c 42bd 586a 673c
00000200: 001d 333d 670f 59bd c188 62bd 5d22 54bd
00000210: b0c4 df3d 5863 c73d e8b8 99bc 2023 f03c
00000220: 7468 e0bc 3ae7 47bd 3605 983d b89f bdbc
00000230: 995f a4bd 80ef 24bc ee13 1fbd d428 84bd
00000240: 8ced 463d b06c 8e3c 11a5 4dbd 00d2 2cbb
00000250: 621a 86bd f85e cabd a823 c83d 40fa c5bc
00000260: 10fc 1bbd 3051 853c ecde d43d 2011 703c
00000270: a0ee aebd 946a 96bd f8c4 e83c 8046 933d
00000280: 8e60 dbbd 925d db3d 0b3a 4ebd dc80 023d
00000290: 0cbd 02bd 4881 503d b878 97bd ac88 0abd
000002a0: 18b7 fb3c 7042 df3c 5cee a93d f849 b5bd
000002b0: 027c bd3d 83d6 dbbd 54c1 ecbc 8f67 94bd
000002c0: 6f27 57bd 886f 9c3c bc6b 33bd 5c5c 273d
000002d0: ba65 07bd 5ec1 b93d 7b1e c5bd 1abb ab3d
000002e0: db26 84bd f638 c63d d8d1 ecbc 2087 97bd
000002f0: 0cea 2ebd 7a6f 833d 60b1 4fbb 08fb c33c
00000300: 7460 b73d 10da dd3c f4f3 4f3d d801 b3bd
00000310: c4f4 223d 8053 2b3c 905e 793d dabb 9fbd
00000320: 3079 65bd 7230 2ebd 042a c23d bd16 56bd
00000330: eb7c c6bd aef7 bc3d f885 3e3c c61e d13d
00000340: ccd1 c03d 9034 973c e8fd d6bd 16aa a2bd
00000350: 3465 da3d 822c bc3d bc67 d4bc 88b2 433d
00000360: 56ae a7bd 9aa5 c83d 754c c6bd 4cd7 d43d
00000370: 7891 2cbd b2fd 963d a111 dbbd c825 29bd
00000380: c05e 593b 2a53 a23d 343a a7bc 1c52 533d
00000390: 9229 2dbd 7211 90bd e835 82bd cc03 acbd
000003a0: d237 953d 20dc 1ebb 8039 743a 7898 1a3d
000003b0: b8cd 0f3d cfc4 b6bd f052 b43c ecb7 b13d
000003c0: dc58 a7bc 807d dcbc b830 58bd c013 af3a
000003d0: 5e54 cd3d 6084 21bb 9f52 c4bd 1b88 b4bd
000003e0: d208 be3d 70e6 823c aac0 1abd 64c7 1d3d
000003f0: 2876 253d a2be b83d c8da 113c 6408 a7bd
0.018305391 -0.07001387 0.053243592 0.057418004 -0.06178953 -0.05254132 0.06175731 0.03810227
-0.07823758 0.10396549 -0.016291723 0.10887538 0.05953674 0.05540216 -0.10495249 -0.06856343
-0.06405346 -0.069040604 0.093688875 0.065936774 -0.03565935 0.0046806186 -0.045280054 0.0035740286
0.02495782 -0.10292938 -0.100438416 -0.008947782 -0.01842244 -0.10319468 -0.050193384 -0.08039515
-0.10566391 -0.024415739 -0.015088312 -0.07506558 -0.09683678 -0.08934438 0.06925227 -0.108358614
0.0030354038 0.1039031 -0.008996658 0.10642557 -0.044324815 -0.097345665 -0.021576576 0.10497101
0.0043015108 -0.06434472 -0.061028235 0.09892988 0.0045993626 -1.9520521e-05 -0.064612746 -0.0403241
-0.032391667 -0.07297149 -0.053241752 -0.0610448 0.033374965 -0.06219914 0.015345886 0.09963961
-0.10250178 0.0048222095 0.00725016 0.013106115 0.10385074 0.016884074 0.099450305 -0.07043056
-0.0009375885 -0.00861904 -0.076778606 0.0453154 0.092731014 -0.049967565 -0.09157969 0.028388947
-0.08990664 -0.06617162 -0.01361867 -0.015191607 0.009851389 0.0023942515 -0.03867761 -0.017905168
-0.10276548 -0.060262598 -0.09048909 -0.075499505 0.08045599 0.02183403 0.06515536 0.08664703
0.04237564 0.022795394 0.07941161 -0.021480463 0.05087152 -0.09954287 0.012025066 -0.012137361
-0.08334432 -0.0069368035 -0.037098013 0.10495773 0.10163055 -0.0786991 0.06358707 -0.061851934
-0.08024216 0.06727785 0.04222946 -0.057741605 -0.0248553 -0.07529795 -0.03807033 0.09760544
0.014976829 0.06150481 0.087981954 -0.10547916 -0.052082457 0.024251014 -0.047482323 0.014124475
0.04372883 -0.052993204 -0.0553062 -0.051790584 0.10926187 0.09735745 -0.018764928 0.029313624
-0.027393557 -0.0488045 0.07422869 -0.023147449 -0.08026046 -0.010066867 -0.038837366 -0.064531
0.048566386 0.01738581 -0.050206248 -0.0026370287 -0.06548001 -0.09881395 0.09772426 -0.02416718
-0.038082182 0.016274065 0.103940815 0.01465252 -0.08541608 -0.07344547 0.028414235 0.07191181
-0.10711776 0.107112065 -0.050348323 0.03186117 -0.03191857 0.050904542 -0.07396072 -0.033821747
0.030726954 0.02725336 0.082974166 -0.08851999 0.09252168 -0.10734274 -0.02890078 -0.07246315
-0.05252784 0.019096151 -0.043803915 0.040859565 -0.033056 0.09070085 -0.09624954 0.08385296
-0.064527236 0.09678833 -0.028908655 -0.0739882 -0.042703673 0.06417747 -0.0031691417 0.023923412
0.08953944 0.02708152 0.05076976 -0.08740586 0.039784208 0.01045692 0.060881197 -0.07799502
-0.056023777 -0.04252667 0.0948067 -0.05226778 -0.09691795 0.09226929 0.01162862 0.10210948
0.094150156 0.018457681 -0.104976475 -0.079425976 0.10663834 0.09188177 -0.02592837 0.047777683
-0.08187549 0.09797211 -0.09682552 0.10392627 -0.042130917 0.07372607 -0.10696722 -0.041295797
0.0033168048 0.079260185 -0.020413496 0.051591977 -0.042275973 -0.070345774 -0.06357938 -0.08399162
0.072860375 -0.0024240091 0.00093164295 0.03774306 0.035108298 -0.08924257 0.022012204 0.086776584
-0.020428114 -0.026915312 -0.052780837 0.0013357326 0.100258574 -0.0024645552 -0.09586071 -0.088150226
0.09279026 0.015979022 -0.037781395 0.03852023 0.040395886 0.09020735 0.008902259 -0.08155897

l2.bias f4 [83]
00000000: 762e ce3d e909 dbbd 2265 10bd 9074 87bd
00000010: ecd8 bebd 9405 ba3d 9059 bebc 1f15 93bd
00000020: 94a4 183d b8df 2abd 2049 3f3d 28fa b53c
00000030: 08b6 58bc 7524 69bd 3c7e 283d 2093 8e3b
00000040: 7cfe be3d d0e4 65bd 3024 c93c 682c 38bc
00000050: e8ce d03c a431 5b3d 48f7 d23d d8ca 9e3c
00000060: 527c b1bd 0834 63bc 7860 e6bc 326d afbd
00000070: 9534 babd ad55 84bd ece0 723d 1c2d 243d
00000080: 7897 303d 866e 913d 7b34 d7bd 6206 87bd
00000090: c238 a63d 9eaa d93d 8220 853d f80b 24bd
000000a0: 70c2 91bd 681c 383d 18e5 5c3d 0d1b cbbd
000000b0: 9c10 cabc 6e9f c23d e55d abbd b093 d93d
000000c0: 2a33 b9bd e4d5 653d ee6d d53d 5815 06bd
000000d0: 47ee 78bd 3469 653d e00c 173b 5384 d0bd
000000e0: 48c4 083d 389c 243d 7841 37bd a2c6 ad3d
000000f0: 6c8c 883d 1682 5dbd a090 3b3d e6dc cc3d
00000100: 505b d3bb 8838 ae3c f4d3 d4bd 4cb3 c33d
00000110: 3880 9c3d d897 c63d bde8 77bd c070 4a3b
00000120: 4653 e03d ccee 653d a0d6 dc3b f536 a8bd
00000130: a0f9 56bb 3806 783d 7cfa 08bd 7ada 803d
00000140: 2c17 2fbd b6f9 c53d a896 b73d
0.100674555 -0.106952496 -0.035252698 -0.066140294 -0.09318718 0.09083095 -0.023236066 -0.07181763
0.03726633 -0.04171726 0.046700597 0.02221401 -0.013226993 -0.056919534 0.04113601 0.0043510348
0.09325883 -0.056126416 0.024553388 -0.011241056 0.025489286 0.053514138 0.103010714 0.019383833
-0.0866629 -0.013867386 -0.028122172 -0.08565749 -0.090920605 -0.06461654 0.059296533 0.040082082
0.0431132 0.07101159 -0.10508057 -0.06593014 0.081162944 0.10628246 0.06500341 -0.040050477
-0.07117164 0.044948965 0.05392942 -0.09917269 -0.024666123 0.09503065 -0.08367518 0.10623872
-0.09042962 0.056112185 0.10421358 -0.0327352 -0.060774114 0.056008533 0.0023048446 -0.10181489
0.033390313 0.040188044 -0.04474017 0.08485152 0.06667408 -0.054079138 0.045792222 0.100030705
-0.0064500943 0.02126719 -0.10391989 0.095556825 0.07641643 0.09696931 -0.06052469 0.0030889958
0.10953383 0.056135938 0.0067394525 -0.08213607 -0.0032802597 0.060552806 -0.033442006 0.06291671
-0.042746708 0.09666769 0.08964282

l3.weight f4 [28, 83]
00000000: 4c42 7cbf 93b2 50bf cf4a 41bf 5c73 5fbf
00000010: 1265 31bf ea1e 37bf ae7e 24bf 3456 71bf
00000020: f448 e2be 09ea 22bf 4c32 4bbf 5a16 21bf
00000030: cef4 36bf d5ef 71bf 8c41 08bf 08f8 42bf
00000040: 8a23 33bf 896e 2bbf b14a 34bf 91ff 3abf
00000050: 45cd 3abf 755e 24bf 98bf 48bf 202d 05bf
00000060: a20e 553f f348 52bf c07b 60bf ce89 7fbf
00000070: 77b1 65bf 5c75 17bf 3f39 37bf 1342 15bf
00000080: e57d 3bbf 5edc 2cbf 3d50 1fbf 4a8f 55bf
00000090: c4b8 3dbf 3d95 03bf de3d 44bf e0cf 28bf
000000a0: 73cb 733f 7610 f0be 9e7b 37bf 281d 05bf
000000b0: 30bc 42bf 68f5 33bf 78a4 20bf 4a3c 49bf
000000c0: bee4 33bf 88cc 56bf f939 32bf da16 2bbf
000000d0: 651f 29bf b9e8 36bf 17fe 1dbf 60dd 47bf
000000e0: 2469 28bf 27bd 16bf f125 10bf 046c 30bf
000000f0: 2dec 14bf ef8b 5cbf 4991 3cbf 3951 34bf
00000100: 383c 16bf e0ba 3fbf dc84 2abf 4c73 2fbf
00000110: 5d67 31bf 2517 51bf 52c0 3bbf 5f66 3bbf
00000120: c55d 61bf cb76 1ebf 76ce 30bf 72da 5ebf
00000130: e309 56bf 1d08 60bf 9e18 3fbf 35a8 36bf
00000140: 5a5a 3dbf 1be1 3abf 634c 43bf aef4 7dbf
00000150: 771e 6cbf 8285 3cbf eef6 693f 914a 69bf
00000160: 9494 71bf abd5 52bf 65ca 78bf 3ce6 2dbf
00000170: c13c 48bf 1ecc 37bf dbbe 4dbf 8aff 5cbf
00000180: 2987 67bf e3d4 3cbf 3911 2fbf d069 5ebf
00000190: b67f 44bf 4348 93bf c677 79bf 123c 55bf
000001a0: 88db 39bf d857 7abf 9de7 13bf 1c54 86bf
000001b0: a45a 5abf 5d74 89bf 668b 88bf 1029 8bbf
000001c0: 4417 55bf b697 43bf a46d 16bf a61b 71bf
000001d0: 5802 2cbf 90b3 0dbf ccaf 8bbf 5e29 50bf
000001e0: 20ae 46bf dfe4 34bf f48d 6ebf e41f 81bf
000001f0: a1e1 1fbf 6e21 65bf 5ea8 2abf b5b8 4bbf
00000200: 701e 3abf 64d4 37bf 116c 91bf ad42 4fbf
00000210: 1bdb 75bf b05b 25bf cc85 5bbf c971 62bf
00000220: b5e0 4fbf a08f 48bf c022 65bf e0a8 60bf
00000230: 8f51 28bf c052 0fbf 4f01 4abf a8d1 2ebf
00000240: e01b 8bbf 1438 36bf ba93 74bf b1b0 2c3f
00000250: c914 2fbf f014 4abf e949 2ebf 8e37 5dbf
00000260: 35e5 4ebf 0699 22bf d239 42bf 9317 5a3f
00000270: 6207 193f 5f01 14bf 0f5f 68bf 9d81 493f
00000280: f193 51bf 944f 5f3f f30f 7bbf dd48 65bf
00000290: fce4 47bf 4f75 2abf 9ff1 69bf 81d6 55bf
000002a0: 60e8 8cbf 5e52 54bf cd60 42bf a5ca 2bbf
000002b0: c8cf 1dbf bc7b 46bf 9915 05bf 74d3 5abf
000002c0: 15ac 46bf e284 6bbf 3cc8 38bf f6f7 52bf
000002d0: b48d 27bf ce8a 4fbf b648 5a3f 4e8b 42bf
000002e0: a4d9 72bf 6e6a 56bf 18d4 5dbf de9f 87bf
000002f0: d959 6bbf 0c42 09bf 46e3 49bf 4e5c 63bf
00000300: bf47 63bf 4e50 55bf f66c 70bf bf4d 61bf
00000310: 9140 5cbf 5f07 28bf 76cd 58bf b638 5cbf
00000320: 117f 2cbf 76e2 67bf 854d 80bf b4a0 41bf
00000330: f0e7 71bf 2d12 66bf ba55 69bf 5421 11bf
00000340: 32b6 5abf 3c62 2bbf 638c 76bf 2adb 32bf
00000350: 6856 3ebf 5fd3 69bf d3de 47bf 88a0 4ebf
00000360: 98dc 4a3f 08c2 4dbf 5d8f 44bf 9da9 3dbf
00000370: c3c0 72bf fe37 42bf b341 2ebf 58da 62bf
00000380: 17e8 3fbf 4985 44bf 6e12 8ebf 647b 56bf
00000390: 3515 2cbf 1e95 4fbf b47f 34bf dfa2 2cbf
000003a0: ba58 1ebf 31b8 293f 16a4 66bf 4488 44bf
000003b0: cec6 3f3f 4cde 26bf 984c 2dbf e813 4b3f
000003c0: 2457 09bf 6d2e 56bf 78cd 63bf a7de 5fbf
000003d0: 7b8d 3cbf 0b8c 44bf 56ab 41bf 2c2e 503f
000003e0: 3f58 41bf dff2 3bbf aa06 35bf 0d15 64bf
000003f0: 518b 1bbf 1cb5 40bf fd9b 43bf 34fc 19bf
-0.9853866 -0.8152248 -0.75504774 -0.872854 -0.69294846 -0.71531546 -0.642558 -0.9427216
-0.44196284 -0.6363836 -0.7937362 -0.6292473 -0.7146729 -0.9450658 -0.53225017 -0.76159716
-0.69976103 -0.6696554 -0.7042647 -0.73046213 -0.72969466 -0.6420663 -0.7841735 -0.5202198
0.8322545 -0.8214256 -0.8768883 -0.9981965 -0.89723915 -0.5916345 -0.71571726 -0.58303946
-0.73238975 -0.67523754 -0.6223181 -0.83421767 -0.74110055 -0.51399595 -0.766569 -0.6594219
0.95232314 -0.4688756 -0.71673 -0.51997614 -0.760684 -0.70296335 -0.6275096 -0.7860762
-0.7027091 -0.8390584 -0.6961971 -0.66831744 -0.6606353 -0.71448857 -0.61715835 -0.78072166
-0.6578543 -0.58882374 -0.56307894 -0.6891482 -0.58172876 -0.8615102 -0.7365919 -0.70436436
-0.58685637 -0.74894524 -0.6660898 -0.68535304 -0.69298345 -0.8167594 -0.7334033 -0.7320308
-0.88033706 -0.61900014 -0.69065034 -0.8705207 -0.83608836 -0.8751238 -0.7464694 -0.71350414
-0.7396599 -0.72999734 -0.7628843 -0.99201477 -0.92233986 -0.73641217 0.9139241 -0.91129404
-0.9436734 -0.8235728 -0.9718383 -0.67929435 -0.78217703 -0.71795833 -0.8036935 -0.8632742
-0.90440613 -0.7376234 -0.68385655 -0.8688021 -0.7675737 -1.1506428 -0.97448385 -0.83294785
-0.72600603 -0.9779029 -0.5777529 -1.0494418 -0.85294557 -1.0738636 -1.0667541 -1.0871906
-0.83238626 -0.7640337 -0.5876105 -0.94182813 -0.67191076 -0.55352116 -1.0913024 -0.8131312
-0.77609444 -0.7066173 -0.93185353 -1.0087857 -0.6245366 -0.89504135 -0.6666316 -0.79578716
-0.72702694 -0.7180846 -1.1361104 -0.80961114 -0.96037453 -0.6459303 -0.8575103 -0.8845487
-0.8120225 -0.78344154 -0.8950615 -0.8775768 -0.6574945 -0.5598564 -0.78908247 -0.6828866
-1.0867882 -0.7117932 -0.9553791 0.6745711 -0.6839109 -0.789382 -0.6808153 -0.86412895
-0.8081849 -0.63514745 -0.75869477 0.8519222 0.5977689 -0.5781459 -0.9077005 0.787134
-0.81866366 0.872308 -0.9807121 -0.89564306 -0.7808378 -0.6658525 -0.9138431 -0.8353043
-1.1008415 -0.8293818 -0.75928956 -0.67106086 -0.61645174 -0.77532554 -0.5198608 -0.854789
-0.77606326 -0.9199964 -0.72180533 -0.8240961 -0.65450597 -0.81071174 0.852672 -0.7599381
-0.94863343 -0.8375615 -0.86651754 -1.0595663 -0.9193397 -0.53616405 -0.78862417 -0.8881272
-0.8878135 -0.8332566 -0.9391626 -0.88009256 -0.8603602 -0.6563625 -0.8468851 -0.86024034
-0.6738139 -0.90579927 -1.0023657 -0.7563584 -0.94494534 -0.89871484 -0.91146433 -0.5669148
-0.8543426 -0.6694677 -0.96307963 -0.6986567 -0.74350595 -0.9133815 -0.7807438 -0.807137
0.7924285 -0.80374193 -0.76781255 -0.74086934 -0.9482538 -0.7586669 -0.68069 -0.88614416
-0.74963516 -0.76765877 -1.1099374 -0.8378203 -0.6721986 -0.8108691 -0.7050736 -0.6743602
-0.61854136 0.6629668 -0.90094125 -0.76770425 0.74912727 -0.6518295 -0.67695 0.7932725
-0.5364859 -0.8366459 -0.88985395 -0.87449116 -0.7365338 -0.7677619 -0.7565206 0.8132045
-0.7552528 -0.73417467 -0.70713294 -0.8909462 -0.60759455 -0.7527635 -0.76409894 -0.60150456

l3.bias f4 [28]
00000000: 723f 65be ae07 a03d 799e d6be 7c1e 86bf
00000010: 6ebc d1be a213 4fbe 6991 80bf c6ac 6ebf
00000020: 172e 0abf 7897 5b3f d5f6 dcbe e595 77bf
00000030: a1e4 b5be b5ab f9be ee4d 45bf 7092 99be
00000040: 53a9 25bf 1153 993d a9e0 8ebd 65de ae3e
00000050: 4cc4 88bd 9d76 dfbe 3f1b b3be 3a4f c6be
00000060: 9284 8fbe f379 01bd 38c4 14bf 0339 2b3f
-0.22387484 0.07813965 -0.4191778 -1.0478053 -0.40964073 -0.20222333 -1.0044376 -0.9323238
-0.5397658 0.85778 -0.43157068 -0.96713096 -0.35525993 -0.48763815 -0.77072036 -0.29994535
-0.64711493 0.07486547 -0.06976444 0.3415405 -0.06678066 -0.43645182 -0.34981725 -0.3873232
-0.2803083 -0.03161044 -0.58111906 0.6688387
